Sequential(
  (0): Sequential(
    (0): Conv2d(1, 12, kernel_size=(11, 11), stride=(4, 4), padding=(1, 1))
    (1): ReLU()
    (2): Conv2d(12, 12, kernel_size=(1, 1), stride=(1, 1))
    (3): ReLU()
    (4): Conv2d(12, 12, kernel_size=(1, 1), stride=(1, 1))
    (5): ReLU()
  )
  (1): MaxPool2d(kernel_size=3, stride=2, padding=0, dilation=1, ceil_mode=False)
  (2): Sequential(
    (0): Conv2d(12, 32, kernel_size=(3, 3), stride=(1, 1), padding=(1, 1))
    (1): ReLU()
    (2): Conv2d(32, 32, kernel_size=(1, 1), stride=(1, 1))
    (3): ReLU()
    (4): Conv2d(32, 32, kernel_size=(1, 1), stride=(1, 1))
    (5): ReLU()
  )
  (3): MaxPool2d(kernel_size=3, stride=2, padding=0, dilation=1, ceil_mode=False)
  (4): Sequential(
    (0): Conv2d(32, 48, kernel_size=(3, 3), stride=(1, 1), padding=(1, 1))
    (1): ReLU()
    (2): Conv2d(48, 48, kernel_size=(1, 1), stride=(1, 1))
    (3): ReLU()
    (4): Conv2d(48, 48, kernel_size=(1, 1), stride=(1, 1))
    (5): ReLU()
  )
  (5): MaxPool2d(kernel_size=3, stride=2, padding=0, dilation=1, ceil_mode=False)
  (6): Sequential(
    (0): Conv2d(48, 10, kernel_size=(3, 3), stride=(1, 1), padding=(1, 1))
    (1): ReLU()
    (2): Conv2d(10, 10, kernel_size=(1, 1), stride=(1, 1))
    (3): ReLU()
    (4): Conv2d(10, 10, kernel_size=(1, 1), stride=(1, 1))
    (5): ReLU()
  )
  (7): AdaptiveAvgPool2d(output_size=(1, 1))
  (8): Flatten(start_dim=1, end_dim=-1)
)
Sequential(
  (0): Conv2d(1, 12, kernel_size=(11, 11), stride=(4, 4), padding=(1, 1))
  (1): ReLU()
  (2): Conv2d(12, 12, kernel_size=(1, 1), stride=(1, 1))
  (3): ReLU()
  (4): Conv2d(12, 12, kernel_size=(1, 1), stride=(1, 1))
  (5): ReLU()
)
tensor([[[[    14,     38,     13,     13,      7,     29,     70,     37,
               92,    101,     48],
          [    16,     73,     66,      9,      9,     63,     83,     60,
               31,    102,    -16],
          [    65,    -47,    -25,    -21,     30,    -43,     74,     19,
               51,     72,     12],
          [   -52,    -20,     28,     19,     59,     -5,     59,     64,
…
