Sequential(
  (0): Sequential(
    (0): Conv2d(1, 6, kernel_size=(3, 3), stride=(1, 1))
    (1): ReLU()
    (2): Conv2d(6, 6, kernel_size=(3, 3), stride=(1, 1), padding=(1, 1))
    (3): ReLU()
    (4): Conv2d(6, 6, kernel_size=(1, 1), stride=(1, 1))
    (5): ReLU()
    (6): Conv2d(6, 6, kernel_size=(1, 1), stride=(1, 1))
    (7): ReLU()
  )
  (1): MaxPool2d(kernel_size=3, stride=2, padding=0, dilation=1, ceil_mode=False)
  (2): Sequential(
    (0): Conv2d(6, 16, kernel_size=(3, 3), stride=(1, 1), padding=(1, 1))
    (1): ReLU()
    (2): Conv2d(16, 16, kernel_size=(3, 3), stride=(1, 1), padding=(1, 1))
    (3): ReLU()
    (4): Conv2d(16, 16, kernel_size=(1, 1), stride=(1, 1))
    (5): ReLU()
    (6): Conv2d(16, 16, kernel_size=(1, 1), stride=(1, 1))
    (7): ReLU()
  )
  (3): MaxPool2d(kernel_size=3, stride=2, padding=0, dilation=1, ceil_mode=False)
  (4): Sequential(
    (0): Conv2d(16, 10, kernel_size=(3, 3), stride=(1, 1), padding=(1, 1))
    (1): ReLU()
    (2): Conv2d(10, 10, kernel_size=(3, 3), stride=(1, 1), padding=(1, 1))
    (3): ReLU()
    (4): Conv2d(10, 10, kernel_size=(1, 1), stride=(1, 1))
    (5): ReLU()
    (6): Conv2d(10, 10, kernel_size=(1, 1), stride=(1, 1))
    (7): ReLU()
  )
  (5): AdaptiveAvgPool2d(output_size=(1, 1))
  (6): Flatten(start_dim=1, end_dim=-1)
)
Sequential(
  (0): Conv2d(1, 6, kernel_size=(3, 3), stride=(1, 1))
  (1): ReLU()
  (2): Conv2d(6, 6, kernel_size=(3, 3), stride=(1, 1), padding=(1, 1))
  (3): ReLU()
  (4): Conv2d(6, 6, kernel_size=(1, 1), stride=(1, 1))
  (5): ReLU()
  (6): Conv2d(6, 6, kernel_size=(1, 1), stride=(1, 1))
  (7): ReLU()
)
tensor([[[[ 288,  316, -523],
          [ 250,  260, -215],
          [ 524,   62, -135]]],


        [[[-536, -792, -619],
          [  52,  407, -624],
          [ 482,  323, -230]]],


        [[[ -69,  -58,  186],
          [-108,  194,  106],
          [ 429,  203,  454]]],


        [[[ 279,  570,  254],
          [ 300,  507,  180],
          [  13,  411,  403]]],
…
