Sequential(
  (0): Sequential(
    (0): Conv2d(1, 12, kernel_size=(3, 3), stride=(1, 1))
    (1): ReLU()
    (2): Conv2d(12, 12, kernel_size=(1, 1), stride=(1, 1))
    (3): ReLU()
    (4): Conv2d(12, 12, kernel_size=(1, 1), stride=(1, 1))
    (5): ReLU()
  )
  (1): MaxPool2d(kernel_size=3, stride=2, padding=0, dilation=1, ceil_mode=False)
  (2): Sequential(
    (0): Conv2d(12, 32, kernel_size=(3, 3), stride=(1, 1), padding=(1, 1))
    (1): ReLU()
    (2): Conv2d(32, 32, kernel_size=(1, 1), stride=(1, 1))
    (3): ReLU()
    (4): Conv2d(32, 32, kernel_size=(1, 1), stride=(1, 1))
    (5): ReLU()
  )
  (3): MaxPool2d(kernel_size=3, stride=2, padding=0, dilation=1, ceil_mode=False)
  (4): Sequential(
    (0): Conv2d(32, 16, kernel_size=(3, 3), stride=(1, 1), padding=(1, 1))
    (1): ReLU()
    (2): Conv2d(16, 16, kernel_size=(1, 1), stride=(1, 1))
    (3): ReLU()
    (4): Conv2d(16, 16, kernel_size=(1, 1), stride=(1, 1))
    (5): ReLU()
  )
  (5): AdaptiveAvgPool2d(output_size=(1, 1))
  (6): Flatten(start_dim=1, end_dim=-1)
  (7): Linear(in_features=16, out_features=10, bias=True)
)
Sequential(
  (0): Conv2d(1, 12, kernel_size=(3, 3), stride=(1, 1))
  (1): ReLU()
  (2): Conv2d(12, 12, kernel_size=(1, 1), stride=(1, 1))
  (3): ReLU()
  (4): Conv2d(12, 12, kernel_size=(1, 1), stride=(1, 1))
  (5): ReLU()
)
tensor([[[[   205,    273,    168],
          [   430,   -133,   -441],
          [   219,    215,    -18]]],


        [[[   700,    205,    230],
          [   658,    938,    448],
          [   196,    323,    -54]]],


        [[[    69,   -197,     -1],
          [  -167,   -107,    125],
          [   108,   -169,    -54]]],


        [[[   626,    373,   -447],
…
