Sequential(
  (0): Sequential(
    (0): Conv2d(1, 12, kernel_size=(3, 3), stride=(1, 1))
    (1): ReLU()
    (2): Conv2d(12, 12, kernel_size=(1, 1), stride=(1, 1))
    (3): ReLU()
    (4): Conv2d(12, 12, kernel_size=(1, 1), stride=(1, 1))
    (5): ReLU()
  )
  (1): MaxPool2d(kernel_size=3, stride=2, padding=0, dilation=1, ceil_mode=False)
  (2): Sequential(
    (0): Conv2d(12, 32, kernel_size=(3, 3), stride=(1, 1), padding=(1, 1))
    (1): ReLU()
    (2): Conv2d(32, 32, kernel_size=(1, 1), stride=(1, 1))
    (3): ReLU()
    (4): Conv2d(32, 32, kernel_size=(1, 1), stride=(1, 1))
    (5): ReLU()
  )
  (3): MaxPool2d(kernel_size=3, stride=2, padding=0, dilation=1, ceil_mode=False)
  (4): Sequential(
    (0): Conv2d(32, 10, kernel_size=(3, 3), stride=(1, 1), padding=(1, 1))
    (1): ReLU()
    (2): Conv2d(10, 10, kernel_size=(1, 1), stride=(1, 1))
    (3): ReLU()
    (4): Conv2d(10, 10, kernel_size=(1, 1), stride=(1, 1))
    (5): ReLU()
  )
  (5): AdaptiveAvgPool2d(output_size=(1, 1))
  (6): Flatten(start_dim=1, end_dim=-1)
)
Sequential(
  (0): Conv2d(1, 12, kernel_size=(3, 3), stride=(1, 1))
  (1): ReLU()
  (2): Conv2d(12, 12, kernel_size=(1, 1), stride=(1, 1))
  (3): ReLU()
  (4): Conv2d(12, 12, kernel_size=(1, 1), stride=(1, 1))
  (5): ReLU()
)
tensor([[[[-1413, -1575,  -788],
          [-1252, -1054,    19],
          [  298,   197,   695]]],


        [[[  180,   262,   709],
          [ -288,   112,   249],
          [ -659,  -752,   212]]],


        [[[ -103,    86,    11],
          [  340,   756,   554],
          [  502,  1717,   792]]],


        [[[ -213,    24,  -113],
…
